.dart_tool/chrome-device/Default/optimization_guide_prediction_model_downloads/cae427d7-8477-49ff-a13b-879de05f1091/model.tflite (tflite, 410364 bytes, 166 tensors)

context_transformer_0/bottleneck_input/norm/add f4 [32]
00000000: 3761 833d 4d93 37bb 03c7 b0be a858 eabd
00000010: 851a 593c 8606 e8bd db0d 55be 9a8c 2c3e
00000020: 9185 fd3d 9613 04be 303b cc3d 921f 743d
00000030: 3855 763c 1730 693d d02c c9bc 0002 d33d
00000040: b600 dcba a073 b6bb ecdf ca3d 42db 983d
00000050: dad6 003c d729 f6ba d930 e2bd 8af1 70be
00000060: 2401 e7bd c7ba cebd bc1e 85bd 9223 a7bd
00000070: f021 23be 0c08 7b3d c270 e23d d568 203d
0.06415027 -0.0028011382 -0.34526834 -0.11442691 0.013250952 -0.11329369 -0.20806067 0.1685051
0.123789914 -0.12898096 0.099722266 0.05960042 0.015034966 0.056930628 -0.024557501 0.10303116
-0.001678488 -0.005567983 0.09905991 0.07463695 0.007863725 -0.001878078 -0.11044473 -0.2352964
-0.112795144 -0.10094219 -0.06500003 -0.081610814 -0.15930915 0.06128697 0.11056663 0.039162476

context_transformer_1/bottleneck_input/norm/add f4 [32]
00000000: 7b00 883d 8093 59bd 11e7 1bbe 941b 1c3e
00000010: 1772 09be 0b28 47be d9ff 8ebc d0b0 56bc
00000020: 45da f4bd 04a9 863d 3465 d03d 3985 523e
00000030: 83cb 3f3d e7d5 f1bc 4095 763d 8274 f13d
00000040: cad7 5ebe f8a3 c1bd 1e0d 8ebc 6b98 8c3e
00000050: 205b 6abe aeed c63d fae9 a23d 00d9 773d
00000060: 4576 53bd 2ff3 883e 5023 02be 1e83 4b3d
00000070: ea8b f33d fac0 d6bd 7a17 fabc dedb 96bd
0.06640717 -0.053119183 -0.15224864 0.15244895 -0.13422428 -0.19448869 -0.017455982 -0.013103679
-0.11955694 0.06575206 0.10175553 0.20558633 0.046824943 -0.029520942 0.06020093 0.117898
-0.21762004 -0.09455103 -0.01734024 0.27460036 -0.22886324 0.097133026 0.07954784 0.06050968
-0.051626462 0.26748034 -0.12708783 0.04968559 0.11891921 -0.10486026 -0.030528773 -0.07366155

mention_transformer_0/bottleneck_input/norm/add f4 [32]
00000000: 4fb1 4dbe 2858 42be 42a6 563e 9eaf 223c
00000010: fcb5 f0bd b300 72be ebc4 503d d642 ea3b
00000020: 4806 eebb e857 7ebc 7a05 e63e 71d1 453e
00000030: cdca a5bc 60b4 843d c46f 533c d20f ba3c
00000040: 39b0 32be 3fbe fa3c b022 953e 06e2 14bd
00000050: c8a8 673e 6157 193d eb43 813d b9e5 f0bd
00000060: 8a18 c93d 0fbd 193d b490 bebd 968b 92bd
00000070: a395 c8bd fd76 853d e2b9 133d a67c e4bd
-0.20087169 -0.18978941 0.2096186 0.009929566 -0.11753461 -0.23633079 0.050969046 0.0071490807
-0.0072639324 -0.015523888 0.44926053 0.19318177 -0.020238305 0.06479716 0.012905065 0.022712622
-0.17450036 0.030608295 0.29128027 -0.036348365 0.22622979 0.037436847 0.063117824 -0.11762566
0.098191336 0.037533816 -0.09304944 -0.0715553 -0.09794166 0.06516836 0.036065944 -0.11156587

mention_transformer_1/bottleneck_input/norm/add f4 [32]
00000000: a663 c03d ae16 8b3e 3590 8ebe 3058 873b
00000010: b7a4 413e cc66 5cbd 8cc6 a4be 3493 723e
00000020: 7e71 0cbd 96af 953e a44f e93d f69d 47be
00000030: 37d6 75be 435b 39be 4534 bfbd 16c2 39be
00000040: 80c8 a53d b65c 753e 2bf2 d43d 2ddf 4bbe
00000050: 6499 43be 8ed4 7e3d 4dc6 95bd 06a4 bb3e
00000060: 1414 2f3e 355a ab3d 07d4 2bbe 1ad1 91be
00000070: 2a5d 7f3e 3866 2e3e c2da af3e 909e 363e
0.093940064 0.2716574 -0.27844396 0.004130386 0.1891049 -0.053808972 -0.3218273 0.23688966
-0.034287922 0.29235524 0.11392143 -0.19493851 -0.24007498 -0.1810122 -0.093361415 -0.18140444
0.08094883 0.23961148 0.103977524 -0.19909354 -0.19101483 0.062214427 -0.073132135 0.36648577
0.17097503 0.08366815 -0.16780101 -0.28479844 0.24937883 0.17031181 0.34346586 0.17833924

context_transformer_0/attention/value/add;context_transformer_0/attention/value/einsum/Einsum;context_transformer_0/attention/value/add/ReadVariableOp/resource f4 [32]
00000000: a6a8 97bd 2796 c1bc f521 68bd 1e5f 0abd
00000010: 5d32 bb3d 8fa9 32bc 2dde 223d 4420 c0bd
00000020: 73a6 883d 6bb5 d8bb 6d9e c6bd c6de c23d
00000030: 9aa5 f1bb 1874 0fbe dbc6 1a3d c228 2d3d
00000040: eec5 b73c 844f 02bc f90a 5f3d b01f fa3c
00000050: 203f 49bd 853d cbbc d778 b03d c95a 453d
00000060: d4a6 59bd d495 9a3c 8f4b 44bd cbfb 8bbd
00000070: 25e6 4f3d df56 f6bc 97bd 9fbc 5e14 883d
-0.07405214 -0.023631169 -0.05667301 -0.033782117 0.091404654 -0.010904684 0.039762665 -0.09381154
0.06672373 -0.0066134236 -0.09698186 0.09515147 -0.0073744776 -0.1400913 0.0377873 0.042275198
0.022433247 -0.007953528 0.054453824 0.030532688 -0.049132466 -0.024809608 0.08616798 0.048182283
-0.053137615 0.018870272 -0.04792362 -0.06835135 0.050756592 -0.03007072 -0.019499583 0.0664451

context_transformer_0/bottleneck_input/norm/mul f4 [32, 32]
00000000: 1eca 55be d2d0 4c3e 0417 33be 219c 143d
00000010: 63e8 643d 5ef1 25be e4b0 0e3e 91eb a5bc
00000020: b75a 20bc f8d8 9e3d 1005 2b3e 1907 bcbb
00000030: 1267 bbbd 532a ac3e e728 843e 4a58 173e
00000040: 92d0 763e 875e 543e ae4d fb3d 489f 233e
00000050: 6a46 403e 1600 55bd 2013 873d bb58 efbd
00000060: 3722 30bd 5296 b8bd 5f6b 6dbe 3499 093e
00000070: 5ba8 403c 1e4e b6bd 8b33 97be cb86 b6be
00000080: f125 013d 989d 1fbe a98e c53c 255e aebd
00000090: 626a 8b3d 02c0 0abe a63e aa3d 0ed8 233e
000000a0: c98a 24bd 1cf1 8a3c bc3a 4d3b 3f12 363e
000000b0: 0423 8d3d 8ca1 acbc f328 e53c b1be fcbc
000000c0: b7e5 613e 3103 37be 54dd 7f3c 1d29 443e
000000d0: 23ca 0cbe f607 023d c0b2 9f3c eb3e b93d
000000e0: f581 31bd 181c 013e f72e 8cbc fab4 0cbd
000000f0: 3072 95bd ef5c 123e b4f8 1d3c ffdc ef3d
00000100: 2ec9 8ebb d1ca d2ba e6ce 3d3e 0def 413e
00000110: 0328 1d3d f0ca e53d 0180 e0bd f9ac 14be
00000120: c1bb 833e 3b08 eb3d b8e4 79be 87cf febd
00000130: 37d2 66be e9bd a6bd 55a1 20be b0ff 543d
00000140: 614b c8be ed2a 5c3c f01f d53c 0ffb b1be
00000150: 559b e73c 6e7b cebd d992 ddbe afa3 a13d
00000160: b2b4 043e 4fcd a33d 246d 163d 8d4b 6bbd
00000170: 51a5 46be 78ab 26be 178a 6f3d 2faa 6e3c
00000180: 2240 b93d 62b7 c1bd 9bc7 3e3e 7a7c bb3e
00000190: 8e83 9b3e eb48 6bbe 2004 a739 5aac 903d
000001a0: 5dc4 a73d dddf 173e 5d23 e9bc 5437 183e
000001b0: 45ce 5dbe 700b c0bd 4606 843e 8f3d ddbe
000001c0: 7c27 1ebe 90e6 fbbd fe4e e4be 3308 903d
000001d0: 25e3 e93d cde9 e63d e71a a7bd 3420 8fbd
000001e0: 4249 93be 018b 3c3e 2cd5 0fbe 55b6 b1be
000001f0: 33f5 a53d 1646 7a3c 82ef 463e a619 933e
00000200: cdd3 d43d 8026 6dbe 7860 143e 3fd8 eabe
00000210: 1cef 15bd 2a2e a13d a6e2 2e3e 283b 3f3e
00000220: 64ce 4e3d 9261 79be 7330 25be 42fc 293c
00000230: 3be9 0abe 7e06 34be e7b0 c0bd 1e28 193d
00000240: 75e5 8e3d 4175 3f3d 5f54 3d3e 7847 ef3d
00000250: 62dc 213c 711a 04be baf6 5f3e e5aa 963e
00000260: 035d 40be 6ad8 0c3f 1332 0b3e a7b3 73be
00000270: cfe4 243e 6448 9fbc 55b2 88bd 944f cebd
00000280: d566 62be c14f 073e d6c4 adbd 0ed2 edbc
00000290: d631 65be c5c5 23be df22 da3d 4ef1 213e
000002a0: 3241 c63e d85c a1be d023 ff3c 73c3 97be
000002b0: 6294 43bd 3ffe d2bd 9523 1fbe bfc3 713d
000002c0: c39e 8f3d 8879 8f3d f0bf 52bc 0257 bdbd
000002d0: 7a0a 523e e703 8a3d fee7 5dbd 98ce 20bd
000002e0: ed1d a1bc 58fd f0bd 22ca 063e ce00 a13d
000002f0: 109d 6b3e 3b61 373d ad2d f03d c048 78bd
00000300: f3a1 0abe 1d77 b53e 269f a9be 474f 113d
00000310: b328 0cbe c713 803e f0ae cc3e 8cc1 21be
00000320: 3d81 8b3d a598 f93e 7eab 113e 123b 54be
00000330: 9467 42be e924 16be 6e12 1d3f 8941 6fbd
00000340: eada 36be 3364 b73d c3cd 833e f6c4 9e3d
00000350: 69c3 90be b25a e4be d6a5 62be 7673 013e
00000360: 7643 4cbe 7873 c73e b710 f03b 825f a43d
00000370: 15ed c23e 1072 9f3e feff b33d ba40 debe
00000380: 74e9 0fbe 7aba 0bbe 71f9 1cbe 731d ff3c
00000390: 4fbb 1b3e 68a0 2cbe 7ed8 d7bc 693a 583d
000003a0: 76a6 8d3d f9b3 993e 889e 97bd f175 8ebd
000003b0: b47a 1d3e 24e6 2a3d 8a34 2cbe 79fc b43d
000003c0: 75b4 2c3e e422 973d 30e9 a53d 701d 503d
000003d0: 1060 b9bd 294c 76be 4bf0 183d b81b 043d
000003e0: 5e5d 4c3e 71d7 f9bd a108 bfbb 1868 083e
000003f0: f004 e33d ac57 d03d 6b45 43bd 9fd9 8abd
-0.20877883 0.20001534 -0.17489249 0.03628171 0.055885684 -0.16205356 0.13934666 -0.020253928
-0.009787253 0.07756227 0.1670115 -0.005738151 -0.091505185 0.3362604 0.25812456 0.14779773
0.24103001 0.20739184 0.122706756 0.1597873 0.18776861 -0.052002035 0.06595445 -0.11686846
-0.04300138 -0.09013046 -0.2318549 0.13437349 0.011758889 -0.089016184 -0.29531512 -0.35649714
0.031530324 -0.15587461 0.024115877 -0.085140504 0.068074 -0.13549808 0.083127305 0.16000387
-0.04017142 0.016960673 0.0031315526 0.17780398 0.06891444 -0.021073125 0.027973628 -0.030852647
0.22060286 -0.17872311 0.015616734 0.19156308 -0.13748984 0.031745873 0.019494414 0.09045204
-0.043336827 0.12608373 -0.017112238 -0.03435228 -0.0729717 0.14293264 0.009641815 0.117120735
-0.0043574786 -0.0016082173 0.18535957 0.18938847 0.038368236 0.11220348 -0.10961915 -0.14519109
0.25729182 0.11476179 -0.24403656 -0.124419264 -0.22541128 -0.08141691 -0.15686543 0.052001655
-0.3912001 0.013437969 0.026016206 -0.34761855 0.02827231 -0.10082136 -0.43276098 0.07892548
0.12959555 0.07998144 0.03672518 -0.057445098 -0.19399 -0.16276348 0.058481302 0.014566942
0.090454355 -0.094588056 0.18630831 0.36618406 0.30373806 -0.22977035 0.00031855796 0.070641235
0.0819175 0.14831491 -0.028459245 0.14864856 -0.21660717 -0.093771815 0.25786036 -0.43211028
-0.1544475 -0.12299836 -0.44591516 0.07032814 0.114202775 0.11275063 -0.08159428 -0.06988564
-0.2876683 0.18412401 -0.14046162 -0.3470942 0.08103409 0.015275499 0.19427302 0.28730506
0.1039196 -0.23159218 0.14489925 -0.45868108 -0.036604986 0.07870133 0.17078647 0.1867491
0.0504898 -0.24353626 -0.16131763 0.010375084 -0.13565533 -0.17580602 -0.094087414 0.037391774
0.06977359 0.04674268 0.18489216 0.116835535 0.0098792035 -0.12900712 0.21871462 0.29427257
-0.18785481 0.5501772 0.1359332 -0.23799 0.16102909 -0.019443698 -0.06674639 -0.10073772
-0.2210954 0.13214017 -0.08484809 -0.029030826 -0.22382292 -0.15993412 0.106511824 0.15814707
0.38721615 -0.31516147 0.031145006 -0.29641303 -0.04774893 -0.103024 -0.15540917 0.05902457
0.07012703 0.07005602 -0.012863144 -0.09245111 0.20511809 0.067390256 -0.054176323 -0.039259523
-0.01966759 -0.117670715 0.13163045 0.078614816 0.23009133 0.04477046 0.11727462 -0.060616255
-0.13538341 0.3544244 -0.33129233 0.035475995 -0.136874 0.2501509 0.39977217 -0.15796489
0.068117596 0.4874927 0.14225575 -0.20725659 -0.18984824 -0.14662518 0.61356246 -0.05841211
-0.17856947 0.08954658 0.2574292 0.07752411 -0.28274086 -0.44600445 -0.22133574 0.12641701
-0.1994761 0.38955283 0.0073262113 0.08026029 0.38071504 0.3114171 0.08789061 -0.43408757
-0.14053899 -0.13645354 -0.1532953 0.031141972 0.15208171 -0.16858065 -0.026348349 0.05279008
0.069165155 0.3002012 -0.07403284 -0.06956089 0.15378839 0.041723385 -0.16816917 0.08837218
0.16865714 0.07379702 0.081011176 0.050809324 -0.090515256 -0.2405249 0.037338536 0.032252997
0.19957492 -0.12199295 -0.005829886 0.13320959 0.11084926 0.10172972 -0.047673624 -0.06779789

context_transformer_0/kq_shared_bottleneck/norm/mul;context_transformer_0/kq_shared_bottleneck/norm/add;context_transformer_0/attention/key/einsum/Einsum;context_transformer_0/attention/key/add;context_transformer_0/attention/value/einsum/Einsum;context_transformer_0/attention/key/add/ReadVariableOp/resource f4 [32]
00000000: a516 e4bd 35a6 f83d 910f dd3d 7117 e1bd
00000010: b9c7 083e a7bc cd3d a464 b7bd 760d b63d
00000020: 2ae3 ce3d a048 173e ecf8 423d 263a c5bd
00000030: 72e0 c9bc 1e75 c8bd 1abc 273e 0638 fcbc
00000040: 6599 413e 20e6 2bbe a589 55bc 18de 73be
00000050: 8e8f 633e a311 22be 67d0 c63d 73c7 253e
00000060: 6264 8f3b bf2e 54bc 3948 d9bc 06aa 633a
00000070: 1453 6a3d 2419 9d3c c3dc 073b cb8c 333b
-0.111371316 0.121410765 0.10793985 -0.10990799 0.13357438 0.10045748 -0.089547426 0.08889286
0.10101922 0.14773798 0.04760067 -0.096302316 -0.024643157 -0.09787963 0.16380349 -0.030788433
0.18906172 -0.16787004 -0.013033305 -0.23815191 0.2222273 -0.1582704 0.09707718 0.16189365
0.0043759802 -0.012950598 -0.026523696 0.0008684698 0.057208136 0.019177027 0.002073095 0.0027397152

context_transformer_0/kq_shared_bottleneck/norm/mul;context_transformer_0/kq_shared_bottleneck/norm/add;context_transformer_0/attention/key/einsum/Einsum;context_transformer_0/attention/key/add;context_transformer_0/attention/value/einsum/Einsum;context_transformer_0/attention/key/add/ReadVariableOp/resource1 f4 [32, 32]
00000000: 3660 973e 1d94 d93d bdf1 ff3d d184 283e
00000010: 92c3 babc bdbc 33bc 629f 413e 0112 82bd
00000020: 3205 3a3d abc6 fc3b 9d34 32be cb92 0fbe
00000030: 59f2 663d 16c6 f8bc 4b73 02bd deae 98bc
00000040: cf1b 0e3e 07e9 1cbe 0ce1 a0be ba88 0c3e
00000050: ff7d 9fbd edec 09bd 834f 0e3e f7b7 c73d
00000060: bc76 453d b38b c03d 5795 18be 26de 59be
00000070: 41f5 ff3d fc21 d33d 9e18 8a3e 1e15 433e
00000080: 4e69 9abe afae 26be 4ad4 14be 1c14 26be
00000090: f45d 39bb ee3a 983d 368f 51be f87a dc3d
000000a0: d331 ecbd 3b8c 2abd f170 4d3e d2d9 143e
000000b0: 9d73 a4bd b903 b03d 6b2c 643d dc9b 8c3c
000000c0: 5597 12be b57d 283e 344e a83e 17f3 0fbe
000000d0: a4f1 b53d f9e3 be3c f6e9 31be 3bd6 d6bd
000000e0: 1fba bcbd f3bd b7bd b1a5 2d3e 9291 583e
000000f0: d7df 08be 622a 00be 1732 9bbe 5111 5abe
00000100: 327a e5be e93b 27bd 1548 c2bd 7534 18be
00000110: 9c48 57be 4be7 47be f780 c93d 764a fbbc
00000120: 31a1 0c3e 0884 db3d f380 8a3c 0dfe ba3e
00000130: 54e3 613e d430 f0bd 745a 013d ac51 ca3c
00000140: b8b4 0a3c 18fc 863d 9d0c e63e f871 a2bd
00000150: 60d7 fb3b c066 913e 31a8 e9bd ffa7 253b
00000160: 6f18 123e 6679 df3c 01ea acbc 8f6a 5a3d
00000170: 0414 1b3e 8a0b 8c3d 3d65 84be c154 2abd
00000180: 9396 913e deff 2f3e 65e4 0d3e 6439 323e
00000190: 9e43 1cbc 0d01 02bd 42ca 5d3e e413 b4bd
000001a0: 3903 9e3d 7242 383d 2db3 4ebe 3fcb dbbd
000001b0: 9117 3e3d a348 b2bd 7a78 71bc 10e3 abbb
000001c0: 1cb4 3b3e 4ad8 20be fb7a 8dbe f89e 1d3e
000001d0: 97b9 adbd 7ac3 dabc ace6 463e 0d1f ce3d
000001e0: c85d 823d 9ec3 c73d 0c0f 41be 8151 6cbe
000001f0: 5483 a43d 1121 1d3e d4d5 973e 423a 6b3e
00000200: dfe5 b5be e0fd d0bd 61f3 e0bd f986 1fbe
00000210: b9f3 0cbd bd69 c3bc a3d0 24be ae7a 3d3d
00000220: 22ab 27bd 2055 4ebc 59bc 0c3e f241 3a3e
00000230: a624 e1bc ed52 aabb 5ec7 cd3c fc63 c1bc
00000240: 9633 ebbd 7799 033e 8d7c a33e c83f 15be
00000250: 5a3b 963d 4bfb 813d 1594 1dbe 3133 40bd
00000260: 9045 1abd 8733 0fbd ef76 093e 1c52 443e
00000270: deb6 d8bc fe7f d7bd d3bf 8cbe 423e 20be
00000280: fffe 7fbe b271 11be 6075 19be f758 18be
00000290: d447 ebbb cc19 963d 4f50 59be 4c70 f03d
000002a0: 00ee babd 53ec dabd 3b60 613e 7757 213e
000002b0: ba96 52bd dca4 7f3d 4177 8c3d 134b c6bd
000002c0: f566 54be 1eff 323e e8f9 953e e470 21be
000002d0: e948 dc3d 26b0 bc3c 3527 72be ba77 97bd
000002e0: 6982 46bd 7537 0dbe e14f 3f3e cb16 783e
000002f0: 6f7a f7bd 4265 e9bd f3e1 90be 66e7 5fbe
00000300: 059d bf3e 2a75 d53d b6fc c13d 5e59 f33d
00000310: 027d 563e 797c 323e 09c6 c3bd 4c81 1ebc
00000320: a22c c1bd 15ec a0bb 230d 4fbd 39dc afbe
00000330: 1792 30be 3b3a fb3d 422e a1bd 70ca 893d
00000340: fd8d 753d cf22 97bd 3c83 cabe da51 fa3d
00000350: 4736 a5bd a97a 76be 3e99 323e e31c 173c
00000360: b123 0fbe e2a9 053d 3b53 a9bc b2de 01be
00000370: 76b6 22be 2029 9fbd d09b 803e 5d21 173e
00000380: 8855 93be dca1 3ebe d527 0fbe b0e9 f0bd
00000390: aa39 10bd 26d7 3d3d a6d7 57be 0868 e13d
000003a0: 2bd7 b9bd e899 b8bd cc40 673e dad1 2f3e
000003b0: f6f9 8fbd 7199 973d 71a8 a83d 172c 3cbd
000003c0: ddc2 33be dce9 293e 0030 953e d3b9 3ebe
000003d0: c15c f83d 64c1 b43d de27 6ebe 121c 94bd
000003e0: 670b 8ebd a4cb 0fbe 3222 113e 96cf 853e
000003f0: 9ea1 f6bd 840f 04be 0bc2 89be beba 84be
0.2956559 0.106239535 0.1249728 0.16456915 -0.022798333 -0.010970292 0.18908456 -0.0635109
0.04541511 0.0077141128 -0.17402883 -0.14020841 0.056383464 -0.030367892 -0.031848233 -0.01863807
0.13877796 -0.15323268 -0.31421697 0.13724032 -0.07787704 -0.033673216 0.13897519 0.097518854
0.048208937 0.094016455 -0.14900719 -0.21276149 0.1249795 0.103092164 0.26971906 0.19051024
-0.30158466 -0.16277574 -0.14534107 -0.16218609 -0.002828476 0.07433115 -0.20464787 0.10765642
-0.11532941 -0.04163764 0.20062615 0.14536217 -0.08029864 0.0859446 0.055706423 0.017164163
-0.14315541 0.16454203 0.32872164 -0.14057575 0.0888398 0.023302065 -0.17374405 -0.1049008
-0.09215187 -0.08971777 0.16957738 0.2114928 -0.13366638 -0.12516168 -0.30311653 -0.21295668
-0.4481979 -0.04082862 -0.09486405 -0.14863761 -0.21023792 -0.19521825 0.09839051 -0.030675154
0.13733365 0.10718542 0.01690719 0.3652195 0.22059375 -0.11728063 0.031580403 0.024697147
0.008465938 0.06591052 0.44931498 -0.07931894 0.007685587 0.28398705 -0.11409033 0.0025277135
0.14267133 0.027279567 -0.021107676 0.05332428 0.15144354 0.068381384 -0.2585849 -0.041584734
0.28435192 0.1718745 0.13856657 0.17404705 -0.009537606 -0.031739283 0.21659186 -0.08792856
0.077154584 0.044985242 -0.20185538 -0.107321255 0.046409193 -0.087052606 -0.0147381965 -0.005245574
0.18330425 -0.15707508 -0.2763289 0.15392673 -0.08482664 -0.026704539 0.19423932 0.10064516
0.063655436 0.09754108 -0.18853396 -0.23077966 0.08032861 0.15344645 0.29655325 0.22971442
-0.3552694 -0.10204673 -0.10983921 -0.15578832 -0.03441212 -0.02385413 -0.16095214 0.046259575
-0.04093469 -0.012593538 0.13743724 0.18189219 -0.027483296 -0.005197874 0.02511948 -0.023607247
-0.114844486 0.12851511 0.31930962 -0.14575112 0.07335539 0.063467585 -0.1538852 -0.04692382
-0.037663996 -0.03496125 0.13424276 0.19171947 -0.026454385 -0.105224594 -0.274901 -0.1564875
-0.24999617 -0.14203528 -0.14986181 -0.14877687 -0.0071801934 0.07329139 -0.21222042 0.11740169
-0.09127426 -0.106896065 0.22009365 0.15756021 -0.051413275 0.06241308 0.068586834 -0.09682288
-0.207424 0.17480132 0.29292226 -0.1576572 0.10756094 0.023033213 -0.23647769 -0.07395883
-0.048464213 -0.13790686 0.18682815 0.24227445 -0.12083899 -0.113962665 -0.28297386 -0.21865615
0.37424484 0.10422738 0.09472029 0.1188228 0.20946124 0.17430295 -0.095592566 -0.009674381
-0.09432341 -0.0049109557 -0.050549638 -0.34347704 -0.17243229 0.12266966 -0.07870151 0.06728065
0.059949864 -0.07379686 -0.3955325 0.12222643 -0.08066993 -0.24070229 0.1744127 0.009223196
-0.13978459 0.032632716 -0.02066957 -0.12682608 -0.15889916 -0.07771516 0.25118876 0.14758821
-0.28776193 -0.18616432 -0.13980038 -0.11763322 -0.035211243 0.04634776 -0.21078357 0.110061705
-0.09074243 -0.0901373 0.22583312 0.17169896 -0.07030098 0.074023135 0.08235253 -0.045940485
-0.17554803 0.16593117 0.29138184 -0.18625574 0.121270664 0.08825949 -0.23257396 -0.072319165
-0.069357686 -0.14042526 0.141732 0.26134938 -0.12042545 -0.12896544 -0.26905856 -0.25923723

context_transformer_0/kq_shared_bottleneck/norm/mul;context_transformer_0/kq_shared_bottleneck/norm/add;context_transformer_0/attention/query/einsum/Einsum;context_transformer_0/attention/query/add;context_transformer_0/attention/value/einsum/Einsum;context_transformer_0/attention/query/add/ReadVariableOp/resource;context_transformer_0/attention/Mul;context_transformer_0/attention/Mul/y f4 [32]
00000000: 550b 5a3e 852c 72be 82e1 f9bd 3004 6f3e
00000010: 3b2a 51be b960 74be 48ef 0a3e febc 75be
00000020: 6462 803c 170b c93d 4e9d d93b 01b1 12bd
00000030: 7fad afba d602 49bd cd53 d73d e4cf 78bc
00000040: cc8f d23d 94aa 14be 98de ecbd 4b46 d4bd
00000050: 566a 49bd fcd4 22be 47de 083e d6f9 083e
00000060: ffe5 f83d 9fc7 11be b2a5 393e c352 173e
00000070: 5686 1dbe 0046 183e 869a 103e ee29 053e
0.21293385 -0.23649795 -0.12201215 0.23341441 -0.20426266 -0.23865022 0.13567841 -0.23997876
0.015671916 0.09816568 0.0066410666 -0.035813335 -0.0013403146 -0.04907497 0.105140306 -0.015186284
0.10281333 -0.14518195 -0.11565894 -0.1036497 -0.049173675 -0.1590156 0.13366042 0.13376555
0.12153243 -0.14236306 0.18129614 0.14777665 -0.15383276 0.14870453 0.14121446 0.13004276

context_transformer_0/kq_shared_bottleneck/norm/mul;context_transformer_0/kq_shared_bottleneck/norm/add;context_transformer_0/attention/query/einsum/Einsum;context_transformer_0/attention/query/add;context_transformer_0/attention/value/einsum/Einsum;context_transformer_0/attention/query/add/ReadVariableOp/resource;context_transformer_0/attention/Mul;context_transformer_0/attention/Mul/y1 f4 [32, 32]
00000000: 6ccc dfbc d10d 31bc a334 6cbc 9ca5 d4bc
00000010: caa6 12bc 0d4c 143d 0a98 4b3c 4be0 82ba
00000020: 484b aa3b 1487 dabc bb38 18bb 72ae d63b
00000030: ddea a2bd a62e a4bc 00ae 1ebd a638 3dbd
00000040: b0ad 5dbc 75dd 353c 9caa 993c c5db d13c
00000050: b17d 2e3c 41a3 7bbd 5803 223d ca86 95bd
00000060: 1079 0fbd 4d60 d83b 0dc1 693c 7501 10bd
00000070: d5c6 813c 0f5b febd 2d7d 9cbd 9800 f43b
00000080: 1ac8 033d b78a 103d 585c c23a 14d0 9a3c
00000090: 66a4 86bb 6c05 26bd 0ff1 a8bc 4f74 55bb
000000a0: 4dbe bdbc 6c51 1a3d 6fa9 ee3a 011e f0bc
000000b0: c927 a23d c62b 913c d165 363d 0b50 893d
000000c0: a7f2 5a3c 4f9c aebc 7c8e 4ebc 1d6a 39bc
000000d0: 5ffe bbbc 745b 523d 3c04 17bd 4505 843d
000000e0: 7673 353d 45c4 163c 7ace c2bb a95a 1c3d
000000f0: 179f 01bd b296 043e c083 983d 7166 303b
00000100: 7932 3b3c 4261 5fbd 7d28 9e3c e8b1 913d
00000110: 7383 94bd 5450 3fbd 33f6 083d 2c88 083d
00000120: 1efb 223d f9b6 a8bc 2a2c f03c d892 133d
00000130: 3862 ff3d 2e8e 51bd 0a26 643d e3ee d8bc
00000140: a4bb bbbc d6ef 96bd 6ef0 773c 9967 afbc
00000150: fb26 173d 043a f23d d143 80bd de1b 073e
00000160: d9a4 a23d ae7b 44bd 96b7 84bd cd25 3b3c
00000170: 3691 363e b448 e03d 7178 013e a04c 79bd
00000180: 8206 dbbc a01b c8bc 1869 d8ba fe2b f7bb
00000190: 9924 a63b c1f3 033d 2a26 ec3c e32c d8bb
000001a0: 4014 ce3c d052 f1bc f243 873b 05fd 713c
000001b0: dc80 94bd 17c1 30bc 5ad2 4dbd 66bd 7bbd
000001c0: 2f8a 8bbc 7ee4 533c 74bc a73c 817f 793c
000001d0: d705 a33c f01c 95bd b32e 2a3d 968f 48bd
000001e0: c99b 2fbd d4ab 2cbc bcb1 47ba 22fb 27bd
000001f0: 257a 1d3d 033b f6bd 38bc 8ebd 9d2c 153c
00000200: a9e8 103d cfbe 653b 79e4 0dba bded ec3c
00000210: 6cb5 00bc ace9 38bd f0da ffbb 1f0d 7d3c
00000220: 224f 65bc f6de c53c c3ea 4b3c 2b54 9ebb
00000230: 566e c03d f322 86bc 3771 1b3d b881 293d
00000240: 414f 253a 0f56 07bd a9d9 4fbc 07b3 cbbc
00000250: 4cd7 b0bb 6674 853d a6e8 24bd a9eb 973d
00000260: 437e 5d3d 9053 53bb bd13 08bc 233b 1d3d
00000270: 9ba4 f93c e87c f33d a89c b33d 0fdc 7cbc
00000280: 5763 e73c 785b 223d 1dca 003c 7e97 b13a
00000290: 5cea e63b 5103 51bd 23f8 83bc f66e 43bc
000002a0: f82d f8bc 1fee 173d c315 83bc 898d acbb
000002b0: 29fb 933d fd4a c0bb 8e04 2b3d 5860 963d
000002c0: 3810 183d 31f0 b8ba cc77 54bc 2163 79bc
000002d0: fa95 d9bc bea0 b13d 70e4 11bd 5b22 353d
000002e0: 9357 2d3d 414e 323c 1929 adbb fd28 1f3d
000002f0: 31db 29bd 0255 0b3e 4eac a83d fde8 2b3c
00000300: c673 793c d864 f03c d570 5bbc e9f2 3ebd
00000310: be40 8a3d acf1 8f3d 1feb d8bc a7ea 01bd
00000320: c77b e7bc f96b ac3c dec3 babb 3738 4ebd
00000330: 0388 07be d5b3 bf3d 0a03 6bbd 9345 d23b
00000340: 491d 973c a628 6e3d fc70 f5bc 7e0f a73c
00000350: ba49 01bd 40db 07be a5e2 7e3d ee34 bdbd
00000360: 4d90 97bd 848c ec3c c7b2 5f3d f782 afbc
00000370: 4a77 11be b709 febd 9c61 eebd 9e17 2f3d
00000380: dbf9 ae3c 6180 213d 0407 c4bb 2a49 1a3c
00000390: 566e adbb da13 52bd 2c01 82bc 0a82 4dba
000003a0: d54c 1dbc 2fea 4d3d 6ca3 c6bc c058 dfba
000003b0: 70c6 b03d 122a 6bbc 4a25 373d 06d4 683d
000003c0: a34d cb3c be8f 6637 f53f 6ebb ce38 8bbc
000003d0: 08dd debc c27c a03d 4739 15bd 2133 443d
000003e0: 3605 5b3d d2b1 ef3c 3fe9 c23b 2d73 293d
000003f0: e98f 03bd 0bb3 123e 1b8d a93d 2ffd 033c
-0.027319156 -0.010806517 -0.014416846 -0.025957875 -0.008950898 0.03620534 0.012426386 -0.0009985057
0.0051969625 -0.026675738 -0.0023227173 0.006551557 -0.07954953 -0.020041775 -0.038740158 -0.046196602
-0.01353018 0.011100163 0.01875811 0.02561749 0.010650084 -0.061434988 0.03955397 -0.073010996
-0.035027564 0.006603277 0.014267218 -0.03515764 0.01584188 -0.12419712 -0.07641063 0.00744636
0.032173254 0.03528854 0.0014828546 0.018898048 -0.0041089533 -0.040532514 -0.020622758 -0.0032570546
-0.023162032 0.037675306 0.0018208454 -0.029311182 0.07917745 0.017721068 0.044530693 0.0670472
0.013363517 -0.021314768 -0.012607213 -0.011316803 -0.022948442 0.051356748 -0.036869273 0.064463176
0.044299565 0.009202068 -0.005945024 0.038172398 -0.03164586 0.1294811 0.07447004 0.0026916529
0.011425608 -0.05453611 0.019306416 0.07114011 -0.072516344 -0.046707466 0.03343792 0.03333299
0.039790265 -0.02059506 0.029317934 0.036028713 0.124699056 -0.051160984 0.05570034 -0.026481098
-0.022916622 -0.07369964 0.0151330065 -0.021411704 0.03690241 0.11827472 -0.06262935 0.13194224
0.079415984 -0.047969513 -0.06480329 0.011422587 0.17828831 0.10951367 0.12643601 -0.06086409
-0.026736502 -0.024427235 -0.0016510813 -0.007543086 0.0050702807 0.032214884 0.028826792 -0.006597148
0.02515614 -0.029458433 0.0041279728 0.014769797 -0.072511405 -0.010788224 -0.050249435 -0.06145992
-0.017033665 0.012932895 0.020475604 0.015228153 0.019900246 -0.0728091 0.041548442 -0.04896506
-0.042873178 -0.010539014 -0.0007617732 -0.041010983 0.038446564 -0.12022974 -0.06969494 0.009104875
0.035378132 0.0035056358 -0.0005412768 0.028921956 -0.007855754 -0.045144722 -0.007808082 0.015445023
-0.0139959175 0.024154168 0.012446108 -0.004831811 0.09396045 -0.016374087 0.037949767 0.041383475
0.000630606 -0.033041056 -0.012686172 -0.02486564 -0.005396759 0.06516342 -0.040260933 0.074179955
0.05407549 -0.0032245852 -0.008305487 0.038386475 0.030473998 0.11889058 0.08770114 -0.015433325
0.028245611 0.039638013 0.007860688 0.0013549177 0.007046981 -0.051028553 -0.016109532 -0.011928311
-0.030295357 0.037092324 -0.016001588 -0.0052658957 0.072256394 -0.0058683143 0.04175239 0.07342595
0.037124842 -0.0014109669 -0.012968015 -0.015221388 -0.026560772 0.08673237 -0.035618246 0.044222217
0.042319845 0.010882915 -0.0052844402 0.03885745 -0.041468803 0.13606647 0.082359895 0.01049256
0.015225356 0.029344961 -0.0133936005 -0.046618376 0.0675063 0.07028517 -0.026479302 -0.031717923
-0.028257264 0.02104758 -0.0056996187 -0.05034658 -0.13235478 0.09360472 -0.057375945 0.0064169853
0.018446581 0.058144234 -0.029961102 0.02039313 -0.03156445 -0.13267231 0.062227864 -0.09238611
-0.0740057 0.028875597 0.054613855 -0.021424754 -0.14205661 -0.12404197 -0.11639711 0.042747132
0.021359375 0.039429072 -0.0059822816 0.009416858 -0.005292694 -0.051288463 -0.0158697 -0.0007839507
-0.009600838 0.050272163 -0.024247847 -0.0017039999 0.08631599 -0.014353292 0.044713296 0.056842826
0.024817294 1.3742536e-05 -0.003635404 -0.01699486 -0.027205005 0.07836296 -0.036431577 0.047900323
0.053471766 0.029259596 0.0059482153 0.041369606 -0.032119665 0.14326112 0.08278867 0.008055969

context_transformer_0/ffn_layer_0/intermediate_dense/einsum/Einsum;context_transformer_0/ffn_layer_0/intermediate_dense/Relu;context_transformer_0/ffn_layer_0/intermediate_dense/add f4 [32]
00000000: a261 e4bd ede8 adbe 9abc 3abf 5231 28be
00000010: ef32 a2be 28be 64be a512 2cbf 6318 1dbf
00000020: dfb3 12bf 4888 18bf a1c1 f2be bed1 10bf
00000030: 45f0 33bf 19da a9be 0d5c babe aa15 fbbe
00000040: da43 a4be a068 9bbe 80e1 b6be 1cac 35be
00000050: 5c77 1cbe a95a 91be 22f9 e8be 8277 6dbe
00000060: 3d60 ebbe 907e 05be 4c01 0cbf c659 1bbf
00000070: e3b2 38be 0888 22bf 5363 dcbe 51a9 bbbe
-0.111514345 -0.3396677 -0.72944033 -0.16425064 -0.31679484 -0.22338164 -0.6721595 -0.61365336
-0.5730571 -0.5958295 -0.47413352 -0.5657004 -0.702885 -0.33174208 -0.36398354 -0.49039966
-0.32083017 -0.3035326 -0.35718918 -0.17741436 -0.15279907 -0.2838948 -0.45502573 -0.2319012
-0.4597186 -0.13036561 -0.5468948 -0.6068386 -0.1803699 -0.6348882 -0.43044528 -0.36652616

context_transformer_0/attention/norm/mul;context_transformer_0/attention/norm/add;context_transformer_0/ffn_layer_0/intermediate_dense/einsum/Einsum;context_transformer_0/ffn_layer_0/intermediate_dense/Relu;context_transformer_0/ffn_layer_0/intermediate_dense/add f4 [32, 32]
00000000: 87ec 6fbe 6545 b73d 9d48 623c afd3 573e
00000010: 6cf9 8c3d 513f 923d 02ee cdbc caba 74bd
00000020: 6e62 2cbe 3a6b c23c a8fe b5be 929f d93e
00000030: e71c 353e 0a3c 4bbe 3db6 783d 08e8 80be
00000040: 3acd 69bd f23b 1fbe edae 47be d241 71bc
00000050: 4d0d 123e c1ee b5bc 2ad5 f1bd 8d94 d23e
00000060: a78c 063d fa00 773c 6988 143a c7f1 273e
00000070: f05a 463e 9939 c3bd a5cd 54bd f3fb 59be
00000080: 1823 bbbe 95a2 98bd 58fe a93e 4102 acbd
00000090: a62c bdbd fac6 dcbd cf51 4abc cab4 2f3e
000000a0: ad9a 7cbe dbb6 a83d 8b60 b53d 8f7a e93d
000000b0: 795a 983d c22e 0f3e 18fd 56be 948c 91bd
000000c0: 3e19 a0be 0810 1cbe 359c febd a740 b0be
000000d0: 4d20 973c fbc1 3abe be59 a9be c1fc f23d
000000e0: f663 18bd a551 8f3d acc7 12be b3be 9a3e
000000f0: e11e 59bc 9251 923d eca5 123e edd1 aa3d
00000100: 2da3 d8bc 63c8 31be 8d3b 193f 64a4 463e
00000110: 24e2 7ebe 4cf4 9f3c 77f0 be3e 2fa9 a4be
00000120: 0a8b 38be db61 c13e 097b 923d 4446 12bf
00000130: 8625 92bd 67d7 b6bc ed0b 433e 679c bcbd
00000140: 1aba 16be 090e 15be 9ae1 dab9 acf1 0fbe
00000150: 4f6d 21be 7154 e03d 8309 513e 7174 1f3e
00000160: 7d1b ac3e 94ed 083c 538b 05bd fcd7 183d
00000170: ebd5 c93d 396d bfbc 8d7e 5c3e e90c 153e
00000180: 5ceb 763d d8ea bfbd f0c3 f3ba c33f f1bd
00000190: 4668 06bd 131f 85bd 262e cf3c 2a37 c9bd
000001a0: f17a 0fbe d693 5abd 4f3a 7c3e 15c1 053f
000001b0: 75b8 1fbd 8651 09be f506 8abe 7241 093e
000001c0: 1a08 e0bd 491c 323e 5002 8f3d f8e3 423e
000001d0: 9a43 743e b8ef 86bb d330 ccbe 2f7a b3bb
000001e0: 853e 333c 494b c6bc 5289 113e e29f e9bd
000001f0: 9d0f 003f 1807 c3be 3923 0abf 261f 98be
00000200: 1e18 97be de84 853e c8ba 283d 3751 25be
00000210: 0156 aebc 7cd7 673e 20fc 923e f900 673e
00000220: 969d b93e b1d2 773d 267b 5abe 89dd e2be
00000230: aed8 dcbd 6b03 68be f0a3 503e e9dc 07bf
00000240: 5428 98bd d190 14be 9a4b 11be e1cf 15be
00000250: 7dff e03c edd7 913e 7a1f 7e3d 590b dd3e
00000260: cf8a 5abd 1055 7d3e 9924 40be 935c 753e
00000270: f4bd b8bd 8db9 41be 51f9 6e3e 9944 c03e
00000280: 9127 b5bd 0a95 1cbe bc36 d33d 2b8a 313e
00000290: 7a7d 75be 240e 11bd cebe bc3d 331c 25bd
000002a0: 5178 a13d 79c9 f2bd db15 da3d 65a3 41bf
000002b0: 2748 42be 3b12 213e 117c 01bd 4983 c93b
000002c0: b680 a0be 5fc5 d0bd 05b1 273d 6add 283d
000002d0: 8437 97be fe09 a7bd 0caa 5abe 4092 053d
000002e0: d398 ecb9 9277 403e ad58 27be 6584 6ebe
000002f0: 6aa0 8c3d cae4 163e e7fe 40be 6630 a53e
00000300: 9c97 9cbd 5328 03be 5862 f93e 1f98 1c3e
00000310: e2ab 52be 76a9 fc3b e929 c03e fda8 abbe
00000320: 2c85 88be 9f00 da3e 33bb 6f3d f195 e4be
00000330: 6f00 fabc ac85 2a3c c4b3 373e a203 84bd
00000340: 378e cdbd f3f7 b4bd ae80 9c3d 9fe4 2fbe
00000350: 289d b5bd 22bb a5bb 2aaf 6a3e 6497 f03d
00000360: 1b89 b43e ef7f 0bbd c6ff 3b3d 356f 8e3d
00000370: 347d 2b3e 5136 17bd 5378 223e 4ce1 6d3b
00000380: ad0b 44be ec3d af3c f828 b53e 723d 3f3e
00000390: 2007 a13d 3935 6dbd 6a47 9b3e 2931 e0be
000003a0: a73f d3bd 95a2 883e 8fdc 6a3d b203 54be
000003b0: fa89 c6bd d79c 5ebd 9d83 1b3e e4e8 2cbe
000003c0: 0f4d 95be 03b5 48bc 156d 7abe cfb0 1ebe
000003d0: d782 9ebc 2c05 fdbd 9da0 2b3d 2286 853d
000003e0: 921f 9f3e 37e6 913e 0b88 52bd 6e47 253e
000003f0: 9542 963e cb03 00be 529a 563d bd28 b2bc
-0.23430072 0.08948783 0.013811258 0.21076845 0.06883511 0.07140983 -0.025137905 -0.05974845
-0.16834423 0.02373277 -0.3554585 0.42504555 0.17686807 -0.19847122 0.06072067 -0.25177026
-0.057080485 -0.15550211 -0.19500323 -0.014725165 0.14262886 -0.022208573 -0.11808236 0.4112896
0.03284898 0.015075916 0.00056660787 0.16400824 0.19370627 -0.0953247 -0.05195393 -0.21287517
-0.36550212 -0.07452885 0.3320186 -0.083988674 -0.09237032 -0.10780139 -0.012348606 0.1715881
-0.24668379 0.08238002 0.08856305 0.11400329 0.07439131 0.1398268 -0.20994985 -0.07106891
-0.31269258 -0.1524049 -0.12432138 -0.34424326 0.01844802 -0.1823806 -0.3307628 0.11864615
-0.037204705 0.06997994 -0.14333981 0.30223617 -0.013251991 0.071444646 0.14321107 0.083408214
-0.026444996 -0.17361598 0.5985649 0.19398648 -0.24890953 0.01952567 0.37292835 -0.32160327
-0.18021789 0.3776997 0.07152373 -0.57138467 -0.07136063 -0.022319509 0.19047518 -0.09209519
-0.1471943 -0.14556135 -0.00041748286 -0.14057034 -0.15764354 0.10953606 0.20413785 0.15571763
0.33614722 0.008357424 -0.032603573 0.037315354 0.09855255 -0.023367511 0.2153265 0.14555706
0.06028305 -0.09370965 -0.0018597823 -0.1177974 -0.032814287 -0.065000676 0.02529056 -0.09824975
-0.14011742 -0.053363644 0.24631618 0.52247745 -0.03899427 -0.13410005 -0.26958433 0.13403872
-0.10939045 0.17393602 0.06982863 0.19032276 0.23853913 -0.004117932 -0.39881 -0.005477212
0.010940199 -0.02420582 0.1421254 -0.11407448 0.50023824 -0.3809135 -0.53959996 -0.29711264
-0.29510587 0.26077932 0.041193753 -0.16144262 -0.021281244 0.22640795 0.2870798 0.22558965
0.3625304 0.060503665 -0.2133604 -0.44309643 -0.10783516 -0.22657554 0.20375037 -0.5307146
-0.07429567 -0.14508368 -0.14188996 -0.14630081 0.027465576 0.2848505 0.062041737 0.4317272
-0.053355034 0.2473948 -0.18763961 0.23961096 -0.09020606 -0.18918438 0.23337294 0.37552336
-0.08845437 -0.15291229 0.10313174 0.17337863 -0.23973647 -0.035413876 0.092160806 -0.040310096
0.07884277 -0.11854834 0.106487 -0.75639945 -0.18972836 0.1572961 -0.03161246 0.0061496836
-0.313482 -0.101938955 0.040940303 0.041226782 -0.29534543 -0.08156203 -0.2135393 0.032610178
-0.0004512729 0.18795612 -0.16342421 -0.23292692 0.06866534 0.14735714 -0.18847238 0.32263488
-0.07646105 -0.12808351 0.48707843 0.15292405 -0.2057338 0.007710631 0.37531975 -0.33527365
-0.26664102 0.425786 0.058528136 -0.44645646 -0.030517785 0.010407846 0.17939669 -0.064460054
-0.10036891 -0.08836355 0.07641731 -0.17177056 -0.08867866 -0.0050577084 0.22918382 0.117476255
0.35260853 -0.034057554 0.04589822 0.06954805 0.1674698 -0.036917035 0.15866213 0.0036297617
-0.19145079 0.021391831 0.3538282 0.18675783 0.07862687 -0.057912085 0.30327922 -0.43787506
-0.10314875 0.2668654 0.057339247 -0.20704535 -0.09694286 -0.054348793 0.15186925 -0.16885716
-0.29160354 -0.012250188 -0.24455674 -0.15497135 -0.019349499 -0.12354502 0.04190122 0.065197244
0.31078774 0.28495952 -0.051399272 0.1614053 0.29347673 -0.12501447 0.052393265 -0.021747941

context_transformer_0/ffn_layer_1/intermediate_dense/einsum/Einsum;context_transformer_0/ffn_layer_1/intermediate_dense/Relu;context_transformer_0/ffn_layer_1/intermediate_dense/add f4 [32]
00000000: 4bfa c93d 45d1 85be 6db2 9abe 893c 49bd
00000010: ffa3 9dbe 7b75 dcbe bd6a c5be 92ed 93be
00000020: 5a53 a7bd 1c39 fdbe 4804 0abe dc90 47be
00000030: f281 053d 4d0c 41be 00a2 aa3e 2285 d8bc
00000040: ac66 5cbe 1706 9dbe 1c2f 66be 0a59 93be
00000050: 161c 52be d7c3 17be 6296 a9be 8aab 99be
00000060: 493b 47be 146b 63be 4efa 7dbe 952b 15bf
00000070: 6d0a c6be 79c7 fabd 6150 dfbe 4cf2 95be
0.09862193 -0.26136222 -0.30214253 -0.049129996 -0.30789182 -0.4305838 -0.38557997 -0.2889219
-0.08170195 -0.49457633 -0.13478196 -0.19488853 0.03259463 -0.18852349 0.3332672 -0.02643067
-0.21523541 -0.3066871 -0.22478908 -0.2877887 -0.20518526 -0.148208 -0.33122545 -0.30013686
-0.19456209 -0.22208816 -0.24802515 -0.58269626 -0.3867983 -0.12245078 -0.43616012 -0.2928642

context_transformer_0/ffn_layer_0/norm/mul;context_transformer_0/ffn_layer_0/norm/add;context_transformer_0/ffn_layer_1/intermediate_dense/einsum/Einsum;context_transformer_0/ffn_layer_1/intermediate_dense/Relu;context_transformer_0/ffn_layer_1/intermediate_dense/add f4 [32, 32]
00000000: 5e4a bfbe 06e3 393e 2f1b 73bc 7923 e6bb
00000010: 93d9 883c b513 a33e f07f d3bc 0e12 eabc
00000020: 6a6d 50be 8066 e53d b9e8 883c 1010 163e
00000030: 2fbc a73e cd6d 8a3d 0918 303e 43db 8f3d
00000040: fba4 99be 8738 e43d 4476 b63d e14c a43c
00000050: 9266 c1bd c7f0 443d 378a e4bd b048 b4ba
00000060: 3d79 c9bd 5729 d5bd 5662 12be 65ae 1b3f
00000070: 5121 633b f4df ac3e 30d3 913b 5063 d63d
00000080: 8dbf 44be 8c57 2b3e ec02 6c3e b1f7 febd
00000090: 48ca 8a3e fa26 8abd 0117 fcbd f4b3 b7bd
000000a0: ac21 39bb 79ff 66bd 6c75 273e 874f bcbe
000000b0: e007 023d b552 babd 2d3c 0c3e 93f9 cabd
000000c0: 61ce 69bd b315 cb3d cecf 153d 7d49 c9bd
000000d0: 9e67 bf3e a97a f43c e606 843e d192 e0bc
000000e0: c2ef 6c3e 8c89 713d 992d c6bc 04eb 3dbe
000000f0: 021c 27be cadc 983d 0135 c63d 580b 0f3e
00000100: 0c9b a6bc 2152 973e 146b 2a3e 1370 693c
00000110: c846 39bd f05b 44bc 9aa9 51be eefe 83be
00000120: 553e 3c3e 726f 2cbe 29cf aabe 5a99 b93c
00000130: 91d2 73bd 7b19 113d bfee 67bc 68de b0bd
00000140: c475 4e3d bc88 3b3d 7015 c3bc 58b4 9fbd
00000150: 2f40 d33e 7b8f a93b c9da 1e3e be37 e63b
00000160: 5539 4c3d 84f3 a93c 5795 293c f4c5 a93d
00000170: 9c9a ee3e deb8 2dbe cb20 443d e99d d63b
00000180: ae42 a8bd 69fa 9cbc 63d2 833d 1d15 24bd
00000190: 2961 05be 28e1 cf3d 6a65 84bd a5ae 233d
000001a0: 0823 d73c 2e74 7ebe b9ab 22bd 85be 1f3e
000001b0: 3002 e23d b7d2 35be ada6 0bbe dfa4 efbc
000001c0: 1dab 753d dda8 52be b8a6 0f3e adbb 15be
000001d0: e87a fb3e d0f1 253d 2c9a 583c 0609 843e
000001e0: 2055 a9bc 79f7 14bd 9c09 98bd 6562 4c3e
000001f0: 8226 d33e 156c 33bd d5a0 803d 1334 a5bc
00000200: 1bab 6c3a ca02 8c3c b37c 423e 1f00 95bb
00000210: b0e4 ed3c 789a ad3d 57e5 843d 3650 6abd
00000220: f543 c4bc b2c1 72bc adf5 933c ad86 0ebd
00000230: e78f be3c 5d5e 59bd 0bf0 08bd e4f3 92bc
00000240: abb1 be3c 291c c73c 4cac d13c c562 94bd
00000250: d184 553d bb44 3c3d be06 6d3c b05f be3d
00000260: 69f7 c93c cdfc ec3b a313 403d f71d bebb
00000270: 4bdc 883d c7d8 4dbd 0781 11bd ec97 b6bc
00000280: dd93 113e 9f00 883e e83d e23d f7f4 07be
00000290: 13d1 953d 897a 673d 7fd5 bcbc c00f 45bd
000002a0: 7b2a bc3d cce2 fd3d dab9 32be ea7a a0bd
000002b0: b382 31bc 2f95 bfbd e339 a9bc 52cc 143e
000002c0: 45ea 813e 3103 923d b05d 163e 130e d6bd
000002d0: 1a06 273e 253e 823e 59c3 9d3e dde3 ce3d
000002e0: e5eb 2e3d 6a61 78bd 8629 6f3d 840f e3bc
000002f0: 3242 9a3e 4f9e 98be ba90 8fbe c755 0abe
00000300: 1219 4f3e 1ebc c53c 8d3b e93e 3742 e1ba
00000310: 4076 9abb 6076 19be cdd2 d83c 7a73 bbbd
00000320: 2384 09be 49f1 81bd 7c73 b9bd 2cb3 adbe
00000330: cb4e 14be 6ae7 5c3e 9f46 19be 454e 0a3e
00000340: 958d 03be 9894 263e ef70 d03d 1d97 113e
00000350: 5b12 0cbc 855e 31be 6ace 1f3e bcfc cfbd
00000360: dc91 57bb e440 8a3c 080e ad3d dd43 353e
00000370: 222b b33d 89b3 fc3c 35a1 363e 85aa f9bc
00000380: d821 0f3c 4fd4 f6be d90d 333e d58e c93d
00000390: cc9c febd 3820 85bd 2a56 95be bac4 11bc
000003a0: d7c0 f4bc d3b0 803e 1a61 73be 7715 723c
000003b0: 7582 1ebe 4f4a 11be af80 b83d be31 353e
000003c0: b0e0 843d ad14 0e3e 8c35 1abf 6f73 1fbe
000003d0: 8b6b b6be 1d38 b43e d617 8a3d 9c4d 083e
000003e0: 91ab 75bc 69a1 07be 4bbd 98bc 58f5 ce3d
000003f0: ad97 db3d 7ffd 29be 8d6c 25be 7b93 0f3e
-0.37361425 0.18153009 -0.014838024 -0.0070232716 0.01670531 0.31850973 -0.025817841 -0.028573062
-0.20354238 0.11201191 0.016712533 0.14654565 0.3276076 0.06759224 0.17196669 0.07024243
-0.30008683 0.11143594 0.08909276 0.02005619 -0.09443392 0.048081186 -0.11159175 -0.0013754573
-0.098375775 -0.104082756 -0.14295325 0.6081298 0.003465731 0.33764613 0.0044502243 0.10468161
-0.19213696 0.16732615 0.2304799 -0.12449587 0.27107453 -0.067457154 -0.12309075 -0.0896987
-0.002824883 -0.05639598 0.16353387 -0.36779425 0.03174579 -0.09097806 0.1369483 -0.09910884
-0.057081584 0.09916248 0.03657513 -0.0982847 0.3738374 0.029843645 0.25786513 -0.027413758
0.23138335 0.058969066 -0.024191665 -0.18546683 -0.16319278 0.07463987 0.096780784 0.13969171
-0.020337604 0.29554847 0.1664241 0.014247912 -0.045233518 -0.01198481 -0.20474854 -0.25780433
0.18383153 -0.16839388 -0.33361176 0.022656132 -0.059526984 0.03542469 -0.014156043 -0.086361706
0.05040528 0.045784697 -0.023813933 -0.0779807 0.41259906 0.005174575 0.15513147 0.007025688
0.049859364 0.020746 0.010350547 0.0828971 0.46602333 -0.16965052 0.047882836 0.006549586
-0.08215843 -0.019162374 0.064366125 -0.040059198 -0.13025345 0.10150367 -0.06464656 0.039961476
0.026261821 -0.24849007 -0.03971455 0.15600021 0.110355735 -0.17756163 -0.136378 -0.029253421
0.05997764 -0.20572229 0.14028442 -0.14622374 0.49117208 0.040513813 0.013220351 0.25788134
-0.020670474 -0.03636882 -0.07423708 0.1995941 0.41240317 -0.043804247 0.06280676 -0.020166432
0.0009028182 0.017091174 0.18992881 -0.0045471336 0.02903971 0.08476728 0.064890556 -0.0572054
-0.023958186 -0.014816688 0.018061483 -0.034796406 0.023261977 -0.053068507 -0.033432048 -0.017938562
0.023278078 0.02430542 0.025594853 -0.07245401 0.052128617 0.045963984 0.0144669395 0.09295595
0.024654107 0.0072322846 0.046893727 -0.005801912 0.066826425 -0.050255563 -0.03552344 -0.022289239
0.14216562 0.26562974 0.11046964 -0.1327704 0.07315268 0.056513343 -0.023051022 -0.048110723
0.0918779 0.12396774 -0.17453709 -0.07835944 -0.010834384 -0.093546264 -0.020657485 0.14531067
0.25374046 0.07129515 0.14684176 -0.10451903 0.16310921 0.25438038 0.308131 0.10102055
0.042705435 -0.060639776 0.05838921 -0.02771736 0.30128628 -0.2980828 -0.28040105 -0.13509284
0.20224407 0.024137553 0.45553246 -0.0017185871 -0.0047138035 -0.14986563 0.026467705 -0.09152885
-0.13429312 -0.063448496 -0.0905523 -0.3392576 -0.14483182 0.21572652 -0.14968346 0.1350642
-0.12846978 0.16267622 0.101777904 0.14217801 -0.008549298 -0.17321213 0.15606084 -0.10155627
-0.0032893335 0.016876645 0.08449942 0.17701669 0.08748461 0.030847328 0.17834933 -0.030476818
0.008736096 -0.48208854 0.17485751 0.09841696 -0.124322504 -0.06500286 -0.291673 -0.008897001
-0.02987711 0.25134906 -0.2376751 0.014775625 -0.15479453 -0.14188503 0.090089194 0.17694756
0.06488168 0.13875075 -0.60237956 -0.15571378 -0.35628924 0.3519906 0.067428276 0.13310856
-0.014994518 -0.13245167 -0.01864495 0.10105389 0.10722289 -0.16600607 -0.1615469 0.14021103

context_transformer_0/ffn_layer_2/intermediate_dense/einsum/Einsum;context_transformer_0/ffn_layer_2/intermediate_dense/Relu;context_transformer_0/ffn_layer_2/intermediate_dense/add f4 [32]
00000000: 56fc 5cbd 2760 cabd fb6b 18be d68d 47be
00000010: b417 1bbe 6b11 22bd a2bd fbbc 51d3 0dbe
00000020: 418e abbd 7107 1dbd f4d0 ab3c ca9a 34be
00000030: 5a28 0dbe 92fd 48be 6632 05bf 6b1b 76be
00000040: 973b 4fbe 95ab 25be 641b 37be c6c7 adbd
00000050: 6636 bfbd c04a 023d 27b3 3abe 396f a4bd
00000060: 2c20 0fbe 4730 9dbe b6a3 3abe 95f8 62be
00000070: e6d0 dfbd da1c a0be a60d 81bd 1250 53be
-0.053951584 -0.09881621 -0.14884941 -0.194877 -0.15145761 -0.039567392 -0.030730072 -0.13850142
-0.08376742 -0.038337175 0.02097366 -0.17637172 -0.13784924 -0.1962798 -0.52030027 -0.24033897
-0.20237575 -0.16178735 -0.17881542 -0.084853694 -0.093365476 0.03180957 -0.18232404 -0.080290265
-0.13977116 -0.30700895 -0.18226513 -0.22165139 -0.10928516 -0.31272012 -0.06301431 -0.20636013

context_transformer_0/ffn_layer_1/norm/mul;context_transformer_0/ffn_layer_1/norm/add;context_transformer_0/ffn_layer_2/intermediate_dense/einsum/Einsum;context_transformer_0/ffn_layer_2/intermediate_dense/Relu;context_transformer_0/ffn_layer_2/intermediate_dense/add f4 [32, 32]
00000000: 47f9 a93d 44fd 0d3e 09a5 953e dd86 a1bc
00000010: 74d9 44bd 7de1 ea3d 0e8d 9c3c ad40 21be
00000020: 2a66 533d af4b 4b3e c2de 153e 27ad 6e3c
00000030: b781 81be 198c 053e 5ac3 85be b1cf 5a3d
00000040: 6646 fcbc 82cf 103e 34d5 3a3d 5ab1 c73c
00000050: 5cfd 553d 3859 873d d675 c7be 849d 79bd
00000060: ce86 7bbd d5e1 8e3d d9b9 55bd 0d79 ad3c
00000070: 90e6 be3e 8d89 ca3d fbd8 5bbc 39b8 22be
00000080: 4aa4 0fbe 9461 71be 8b11 f13d 6cf7 e6bd
00000090: cba6 f2bd 971a b93e dad3 ebbd b970 98bd
000000a0: 382a 28be 2f97 2fbe 59cd b23d 6cf9 2fbe
000000b0: 0f89 173e ea33 2a3b d248 733c f00a 9dbe
000000c0: d5f7 2dbd 8e18 263d 7872 3b3d 253c 0c3e
000000d0: 36c8 a43e d048 2c3e 06c9 19bd 44aa 943e
000000e0: 49e9 313e dc1b b6bd d557 e23d 3d34 f0bc
000000f0: 30aa 4f3d 8074 323e 38d3 b83d 1917 62bd
00000100: 1a78 9dbd a78a 443e d952 2a3e 9869 a3be
00000110: 3020 0a3d 2710 9ebd 9e05 4c3e 064f 403e
00000120: aef5 aebb 0944 fb3d 1823 713e e955 4f3e
00000130: bff3 2bbe e0ea 0dbe 6aa7 04bd 4645 0b3d
00000140: 5e0c 2b3e d23e be3d 334c 60be 4ea8 48be
00000150: c8a9 a53c f9c9 60bd b6d4 0dbd 4fe7 093d
00000160: 89db 013d 2e3f 2c3e fef7 48be b832 84bc
00000170: 25d1 e3bb 853a 71be 702c 583e b04f 613e
00000180: 62f8 983d 200c 96bd c9ae 563e 7680 88bd
00000190: 58a4 fe3d 22d3 cc3c a984 2b3b 82c4 753d
000001a0: 67b3 8e3e 0b42 b5bb 48ad 4f3c 0253 513d
000001b0: fe45 88be 75f7 3fbe 8919 92bd a2f5 b5bd
000001c0: 0927 ca3d 60a6 06be 309a c33d 12f5 3f3d
000001d0: afa5 21be 9c73 7e3e 46c9 603d 5f06 71bc
000001e0: de8e dc3d ffb4 f5bd c93a 753e 1805 01be
000001f0: 09b6 c8bd 9144 acbe 665d 08bd e6f5 07be
00000200: 87ec bc3c ee6f 39bd 55ff 6fbd 0381 d4bd
00000210: 98d9 5abc f851 313e 226c e33e 11b7 63bd
00000220: 44c3 87bd 74d6 8d3c d1c2 8a3d fd7a 563e
00000230: db5b 893e dbf7 2e3e 564b 2dbd 052f 713e
00000240: a41b 103e 4315 9f3e a44d 6c3e 46cd d8bd
00000250: adf8 073e cc99 cb3e 38e3 5ebd d623 c0bd
00000260: 49ed 4abc c349 1d3e 1b0d 743d 67c8 883d
00000270: 0252 153e ac7a 743e ce25 94be b4e8 b6bd
00000280: 1515 183e d0e1 1b3d 8d16 3bbe 0134 5a3c
00000290: aeb3 9e3c 775e 493e 0251 0cbe 9acd 2eba
000002a0: f238 443d 656e 163e 0e74 783d 1dde 48bc
000002b0: 3eaf 893e 9dd6 58bd 3f18 af3d 6466 203e
000002c0: b650 513e c938 e7bb 3928 013e 72ac afbe
000002d0: 903d 5b3d aa8f 553e e3eb 723d 24f6 ccbd
000002e0: c19d 55bd d636 f1bd 3532 3dbe cd42 c2bd
000002f0: c52e 1d3e 9123 a43d 90a3 2ebd 2a72 8a3e
00000300: ca1d 753d e983 e5bd 1caf 0bbc 7636 c0be
00000310: d3ad 333d c899 3a3e 193f 05bd 70ad 35be
00000320: 1070 583d 7230 c03e d558 b63d 29b2 6bbe
00000330: d610 543e 9e36 d53d 5215 3ebe a350 57be
00000340: db7c 2f3e cab5 5bbe 9094 263e 6567 7dbe
00000350: d6c3 303e 814d 833e 8d9c 8a3d 569c 153c
00000360: 64b9 19bd f80a d73c e917 de3a cfc8 a0bd
00000370: 6fcc 5c3e bfd1 183e b45e 353d e10c 363e
00000380: 045a 543d c147 0ebd 340e f53a 0c1d dc3c
00000390: 2d46 37be 2732 a73c 59d2 0e3e 370c b43c
000003a0: 36c9 1c3d e824 1a3d 8a34 efbc d7f0 8abd
000003b0: a0b7 6e3d ace9 733c 6448 ec3d 72f1 0b3e
000003c0: 42f1 d43d 3654 35bd b159 e23d 88f0 0c3d
000003d0: d564 80bc 60c1 263e f237 a93d 514c 9abc
000003e0: 9df2 9c3d 78c4 bdbd 5425 203d 4361 1abd
000003f0: 234d 933d f4ce e13d 5218 2b3d d364 c63d
0.08299499 0.13866144 0.29227474 -0.019717628 -0.048058942 0.1146879 0.019110229 -0.15747328
0.051611103 0.1985309 0.14635757 0.01456765 -0.25294277 0.13041724 -0.26125604 0.053420726
-0.030795287 0.14141658 0.045613483 0.02437656 0.052243575 0.06608814 -0.3895709 -0.060941234
-0.061407857 0.06976668 -0.05217919 0.021175886 0.3728528 0.09889517 -0.013418431 -0.15890588
-0.14027515 -0.2357238 0.11770924 -0.11277661 -0.118482195 0.361531 -0.11515017 -0.07443375
-0.16422355 -0.17147516 0.08730573 -0.1718499 0.14798377 0.0025970885 0.014848905 -0.30672407
-0.04247268 0.04055076 0.045763463 0.13694818 0.32184 0.16824651 -0.037545227 0.29036152
0.17374147 -0.088920325 0.11051909 -0.029321784 0.050699413 0.17427254 0.09024662 -0.05519781
-0.07688923 0.19193517 0.16633166 -0.319165 0.033722103 -0.077179246 0.19924018 0.18780145
-0.005339346 0.12268836 0.23548543 0.20247616 -0.167922 -0.13859129 -0.03238622 0.03400161
0.16703936 0.09289326 -0.21904068 -0.19595453 0.02022256 -0.054880116 -0.034626685 0.03366786
0.031703506 0.16820976 -0.19625852 -0.016137466 -0.006952422 -0.2355748 0.21110702 0.22003055
0.0746925 -0.073265314 0.20965113 -0.06665127 0.1243369 0.02500302 0.00261716 0.060001858
0.27871248 -0.0055315546 0.012675591 0.051104553 -0.266159 -0.18746741 -0.07133777 -0.08884741
0.098707266 -0.13149405 0.09550893 0.046864577 -0.1578586 0.24848789 0.05487945 -0.014710992
0.10769437 -0.11997413 0.23948206 -0.125996 -0.098003455 -0.33646062 -0.033292197 -0.13277397
0.023062004 -0.04527276 -0.058593113 -0.103761695 -0.013357542 0.17316425 0.44418436 -0.055594508
-0.06629041 0.017314173 0.067754395 0.20945354 0.26827893 0.17086737 -0.042308174 0.23553093
0.14073044 0.3107091 0.23076493 -0.10586028 0.13278456 0.39765775 -0.05441591 -0.09381835
-0.012385675 0.15360169 0.05958281 0.06678849 0.14582065 0.2387492 -0.28935093 -0.08931103
0.14851792 0.03805715 -0.18270321 0.013318063 0.019372787 0.19664942 -0.13702777 -0.000666821
0.04790587 0.1469055 0.060657553 -0.012259987 0.26891512 -0.052939046 0.085495465 0.15664059
0.20440945 -0.00705633 0.12613 -0.34311253 0.053525507 0.20855585 0.05930699 -0.10007885
-0.0521524 -0.11778037 -0.18476184 -0.094853975 0.15349872 0.08014596 -0.042636454 0.27040225
0.059842862 -0.112068005 -0.008525636 -0.3754155 0.043866944 0.18222725 -0.032530878 -0.17741942
0.052841246 0.3753696 0.08903662 -0.23017181 0.20709547 0.10410808 -0.1856282 -0.21026854
0.17137472 -0.21456066 0.1626761 -0.24746473 0.17262205 0.25645068 0.06768141 0.009131512
-0.037530318 0.026250347 0.0016944382 -0.07850801 0.2156236 0.14923762 0.04427977 0.1777835
0.051843658 -0.0347364 0.001869625 0.02686932 -0.17897864 0.020409657 0.13947429 0.02197848
0.038277827 0.037632853 -0.029199857 -0.06784218 0.058280587 0.014887255 0.11537245 0.13666323
0.10397579 -0.044269763 0.110522635 0.034409076 -0.01567308 0.16284704 0.08262624 -0.018835219
0.07663462 -0.09265989 0.0390981 -0.037690412 0.07192447 0.11025801 0.04177124 0.096871994

context_transformer_0/ffn_layer_3/intermediate_dense/einsum/Einsum;context_transformer_0/ffn_layer_3/intermediate_dense/Relu;context_transformer_0/ffn_layer_3/intermediate_dense/add f4 [32]
00000000: 7969 89be 99db c0bd 9670 debd dc8f 57be
00000010: b39b 76be 5e78 75be 293c 36be 845f 03be
00000020: 8166 86be 02af d6bd 3e81 8fbd e8bf 1abe
00000030: 867f 33be 0fa5 6ebb ec8a b43b 8fa0 b0bd
00000040: 052c 4bbe 6c8a 6fbd c649 5abe de96 53be
00000050: 49f7 99be 799f d9bd e995 69bd 6f2a a1be
00000060: 85ea 0fbe e352 10be c376 0fbe 56e2 21be
00000070: 1171 1fbe b584 2abe 14fc 1dbd 7980 1bbe
-0.26838282 -0.09416885 -0.10861318 -0.21050972 -0.24082832 -0.23971698 -0.17796387 -0.12829405
-0.2625008 -0.10482599 -0.07007073 -0.15112269 -0.17529115 -0.00364143 0.005509725 -0.08624374
-0.19841011 -0.05848162 -0.21317205 -0.2066302 -0.30071476 -0.1062612 -0.05702773 -0.31477687
-0.14054306 -0.14094119 -0.14010148 -0.15808997 -0.15570475 -0.16652186 -0.03857048 -0.15185727
